lab4/model/best.pth (torch, 263324 bytes, 7 tensors)

net.0.weight f4 [64, 1, 9, 9]
00000000: 5bac 73bd 1ef8 dfbd 21d8 a2bc 9461 933d
00000010: 0128 19bd 3b6b 8fbb bf1b e63d 9ffd 913d
00000020: 93fc 9e3c 8115 c43d afff bd3c 2a86 cc3d
00000030: 44ea f43d 2b3b b03d 3fb9 21bd 966a 7e3d
00000040: bbf4 d93d ee51 ab3d 753d 153d 81dc ad3d
00000050: 3714 2f3b a796 ec3d b5b7 8b3d 64d9 fb3d
00000060: 992c 19bd 0428 25bd a086 533b 1e19 ad3a
00000070: 9a41 c83d 599d 99bd bb24 96bd 79a2 6bbd
00000080: a449 223c df66 1fbd 9c59 4c3c 5fd3 153d
00000090: 8421 d7bc 98e7 d9bd c055 81bd af5a 1c3d
000000a0: bbcd ab3b beec 483d d302 24bd 9f08 f53d
000000b0: 7bef 90bd 8a4d 75bd 7315 b0bc e24a 173d
000000c0: b4c5 0cbd c25e 423d ab3c 85bd 93e2 28bc
000000d0: 187f c53c 83dc bbbd ed1d 923d 9140 7cbd
000000e0: 0247 4c3d 43ed 90bc 1b81 be3d 24c1 723d
000000f0: 849b c4bd 3508 f93d 9977 19bd 4ab5 153d
00000100: 9997 ab3d 8232 99bd 7dc9 98bd 9ceb ad3d
00000110: cbd4 9d3d 6b6e dcb8 caaa ddbc 2b80 113d
00000120: 5e7a db3d c297 57bd a3ad 54bd 9254 093d
00000130: 2efa 2bbc 32af b63c 817f 8e3d 40fe 92bc
00000140: 31ab 7e3d 331c 683d 7e40 37bd f78f 813c
00000150: 5a4c 1f3c 3cef a53d 3bab a2b9 152b 473d
00000160: 0e25 b33d 36a6 0fbc 64ab 82bd 6c7c b13d
00000170: 8d1a b9bd 292b d9bd 39a2 3d3d 488e 36bd
00000180: fbc2 68bb 8edb d9bc 6318 b9bd 1a94 43bc
00000190: 6d38 4dbc 765c cbbd f341 05bc e02e bc3c
000001a0: 816e 74bd cbea c73d 33be 033d 8a3f 5ebd
000001b0: d503 473d e86f d3ba 373d cdbb d720 ab3d
000001c0: 9084 63bd 1d00 8d3d f4fc 9cbd 04e7 b83d
000001d0: 4cb7 64bd 799a 34bd 1540 433d 4b02 023e
000001e0: 46c1 05bd 1c90 a03d 15d3 be3d 38d1 b83b
000001f0: 6e9d 873d 839e 9dbd 0b4e 0b3e d100 b33d
00000200: 3261 60bd 0637 ad3d 1704 1a3d 90a7 a83d
00000210: 7922 253c c7a7 7f3c 5aed 0d3c bce0 b93d
00000220: c32e c6bd 5925 96bd f816 febd f9f1 bb3c
00000230: ec8a fbbd 3a00 98bd 1b00 8fbd e509 c03d
00000240: 7e98 6abd 6d65 77bc c0a5 2fbd 8ec5 5bbd
00000250: 8d10 923d 3318 a0bd 8987 e53d 0ac8 433d
00000260: e558 0dbd 83d8 e0bc 5582 09bb 75e7 afbd
00000270: 3f33 66bd 3b34 c33d ce99 8cbd ac95 c83d
00000280: d8b8 40bd aac4 babc b4aa e3bd de23 babd
00000290: 597c edbc 08ff a4b9 3cbb 00be 3a19 823d
000002a0: b38f 483c 5a78 5cbd 0551 8b3c f028 bb3d
000002b0: e2fd 113d 147a bd3c 7354 b1bd 5822 10be
000002c0: f33c d5bd a672 c8bd 7a94 263d ff13 02be
000002d0: 55f8 26bd 6273 753d 5e7b 25bd b611 53bd
000002e0: cf60 3c3c ac8b 4f3c db19 943d 4745 dfbc
000002f0: 5043 8a3c 7fba 353d 1f48 8abd 1a03 8ebd
00000300: 3b84 0dbe e1ca eebb dbf1 86bd 7aa2 a33b
00000310: c61f 03be 4b16 cc3a 4fbc e13d f97d 8bbc
00000320: ab23 c9bd b5ae a5bd 3c04 3cbc 929c a7bb
00000330: 5d92 4bbd 78e8 863d b604 06be 556c 9bbc
00000340: f8c3 a6bd d337 483d 9987 7bbc 2288 c7bb
00000350: e463 9d3d 60fc 66bd 3c90 ebbd a349 b8bc
00000360: a4b3 5fbd e48c 31bd 9888 56bd ea80 1f3d
00000370: 2708 443d 67ec cabd f8ff 2a3c c896 14be
00000380: b06a 2b3d bdff ebbd ce74 dcbb ae73 063d
00000390: 1217 91bd 51b7 7f3d 9c5f 4f3c 4430 21be
000003a0: 92da 4abd e7fa 4d3c 0c5c f5bc 82e0 d23d
000003b0: 8fdf e83a 232f ad3c c568 f73d 1ee5 ccbd
000003c0: 539c 26be 8148 efbc 3f26 3cba 1e19 d3bc
000003d0: a520 e03c b831 d33c b70e a2bd 23de 283d
000003e0: 23f7 d9bc 4142 d33c daf3 b13d ec1d 05bd
000003f0: 3f21 11bc 3eb0 a1ba 4f28 7c3d d515 bb3c
-0.059490543 -0.109359965 -0.019878449 0.07196346 -0.037391666 -0.0043767965 0.11235761 0.071284525
0.019407546 0.09574414 0.023193209 0.09986527 0.11958745 0.086050354 -0.039483305 0.062113367
0.10642382 0.08365236 0.036435563 0.084893234 0.002671493 0.11552172 0.06822149 0.12297323
-0.037396047 -0.040321365 0.0032276288 0.0013206338 0.097781375 -0.07500715 -0.073312245 -0.057527993
0.009905253 -0.038916465 0.012472536 0.036578532 -0.026261099 -0.10639876 -0.06315184 0.03817242
0.005243031 0.0490539 -0.040041756 0.11964535 -0.07076927 -0.0598884 -0.021494603 0.03693665
-0.034368232 0.04745365 -0.06505712 -0.010307926 0.024108455 -0.09172919 0.07134614 -0.061585013
0.049872406 -0.01769126 0.09301969 0.059266225 -0.09599975 0.121597685 -0.037467573 0.036549844
0.08378524 -0.07480337 -0.07460306 0.084922045 0.07706603 -0.000105109844 -0.027058978 0.03552262
0.10716699 -0.052634962 -0.051923405 0.03352792 -0.010496659 0.022300337 0.06957913 -0.017943501
0.06217498 0.056667518 -0.04473924 0.015815718 0.0097227935 0.08102271 -0.00031026624 0.04862507
0.08747302 -0.008767655 -0.063803464 0.0866631 -0.09038267 -0.10603935 0.046297286 -0.044569284
-0.0035516608 -0.02659395 -0.090378545 -0.011937166 -0.01252566 -0.09929745 -0.008133399 0.02297157
-0.059675697 0.0976158 0.03216381 -0.054259814 0.04858764 -0.0016131373 -0.006263401 0.08355873
-0.055546343 0.06884787 -0.076654345 0.09028438 -0.055838868 -0.04409263 0.047668535 0.12696187
-0.032655023 0.07839987 0.093176045 0.005640175 0.06621824 -0.07696249 0.1360399 0.0874039
-0.054780193 0.084577605 0.037601557 0.08235085 0.01007902 0.015603966 0.008662546 0.09076068
-0.09676888 -0.07331342 -0.12406725 0.02294253 -0.122823566 -0.07421918 -0.06982442 0.09376887
-0.057274334 -0.015099865 -0.04288268 -0.0536552 0.07132063 -0.07817116 0.11207492 0.047798194
-0.034508605 -0.02744699 -0.0020982225 -0.08589069 -0.056201216 0.095314465 -0.068652734 0.09794173
-0.04705128 -0.022798855 -0.111165434 -0.090888724 -0.028989958 -0.0003147053 -0.12571424 0.06352468
0.012241292 -0.053825714 0.017006407 0.091386676 0.035642512 0.0231295 -0.086586855 -0.14075601
-0.10412016 -0.097874925 0.040668942 -0.1270294 -0.04076417 0.05992449 -0.040400855 -0.051530562
0.01149769 0.012667578 0.07231494 -0.027254714 0.0168778 0.04436731 -0.06752037 -0.06934185
-0.13819973 -0.0072873686 -0.06589099 0.004993734 -0.1280509 0.0015570609 0.11022245 -0.017027842
-0.09821256 -0.08089963 -0.011475619 -0.0051151 -0.04970013 0.06587309 -0.13087735 -0.018972555
-0.08142847 0.048881363 -0.015352153 -0.0060892263 0.07685068 -0.056393027 -0.1150212 -0.02249605
-0.054614678 -0.043347254 -0.05237636 0.0389413 0.047859337 -0.099083714 0.010437004 -0.14510643
0.041849792 -0.115233876 -0.0067277914 0.032825164 -0.070844784 0.062430684 0.012657072 -0.15741068
-0.04952485 0.012572027 -0.029951118 0.10296728 0.0017766821 0.02114064 0.1208053 -0.10004638
-0.1627057 -0.029209377 -0.000717733 -0.025768813 0.027359316 0.025780544 -0.07912963 0.04122747
-0.026607102 0.025788428 0.08689089 -0.03249924 -0.008858024 -0.001233585 0.06156188 0.022837559

net.0.bias f4 [64]
00000000: 6344 293b 1201 84bd 7f00 0f3e dc65 d23d
00000010: 65d9 c2bd 9baf ebbc 3c26 34bc e69e 26bd
00000020: 0221 31bd 22e6 b13a 8468 4f3d a162 8e3d
00000030: 4423 96bd efcf b53d 0ae5 ef3d a687 a9ba
00000040: 61bf 243c bf8c b43d 73db a3bd 7ca8 013e
00000050: 51e9 c03d 3e7f b53d 2a65 d73a e168 73bb
00000060: 180c 6dbd e16d d23d 1d0b d5bc e3ee 55bd
00000070: feb5 783d 7e21 093e ad68 48ba 2b45 57bb
00000080: 1177 6c3d e097 90bd bc5b ebbc 0f49 e43d
00000090: 6299 993d 8575 9e3c d383 9dbd af87 38bd
000000a0: 8cb9 5abd 5835 11bd 2239 adbd 8db9 173d
000000b0: e894 c8bd d401 db3c 94f4 9c3c 7c71 813d
000000c0: cab0 853d fae4 033e 4820 e53d 5ef7 a73d
000000d0: 4e6c fd3d 3629 b4bc ab7f 4fbd 8dc8 083e
000000e0: ed8d d43d 8ecd d0bc 4cff b23d 031b e9bc
000000f0: 75a0 123e 17aa 4abc 227b 7a3c d28c 9bbd
0.0025828115 -0.06445517 0.13965033 0.102733344 -0.09514121 -0.028770259 -0.010995444 -0.04067888
-0.04324437 0.0013572613 0.050636783 0.06952406 -0.07330945 0.08877551 0.117136076 -0.0012934103
0.010055394 0.08815908 -0.08000841 0.12661928 0.094195016 0.0886216 0.0016433347 -0.003714137
-0.05787286 0.10274864 -0.026006276 -0.052229773 0.060720436 0.13391683 -0.00076449924 -0.0032847624
0.057730738 -0.07060218 -0.028730266 0.11146747 0.074999586 0.019343147 -0.07691159 -0.045051273
-0.053399608 -0.035451263 -0.08458163 0.03704219 -0.097940266 0.02673427 0.019159593 0.063204736
0.065278605 0.12880316 0.11187798 0.082014784 0.12374173 -0.021992307 -0.050658863 0.13357754
0.10378633 -0.025488641 0.087401 -0.028455263 0.14319022 -0.012369654 0.015288146 -0.07595219

net.2.weight f4 [32, 64, 5, 5]
00000000: c1e9 013a 21c5 3fbc 9137 3b3c f04d 573c
00000010: 7873 c939 a953 b9bc 5669 f7b8 1da9 ae3c
00000020: d8a3 cd3c 4702 643b fe3f 5eba 6f2c b23c
00000030: 158b bcbb bbde 163d 4626 823c 6f95 283d
00000040: 1fc3 003d ee08 013d 0618 b13c 3442 983c
00000050: c67b 7f3c b957 8aba a4b3 33bc 98d9 d53c
00000060: fbf3 28bc 66d0 713c 102c af3c 7fa0 983c
00000070: 9105 213d 666e fe3c b80f e33c 7acc 0f3d
00000080: 8375 513c ef8c be3c 4ea2 a43c 81df 443c
00000090: 798b 663c dbde 783b 189a 7ebc d250 35bc
000000a0: aded ffbc 69a6 833c c1c2 57bc ff78 10bb
000000b0: 426d e4bb 0ea7 f3bc 99cf 1cbb 8c4f 163b
000000c0: fd69 cebc 75a6 99bc 9a76 9b3b 4768 e33b
000000d0: d29e 5abc 2bf1 193c 5ed4 683c 3a9d 153b
000000e0: 7b99 5ebc 95a0 23ba c1bc 293a 79a5 893b
000000f0: 243e debb a02d 96bb 139e 1abc f717 b4bc
00000100: 6fa0 263b ca0f 043c ff36 213c 0793 303c
00000110: e90c a8bc 053b 26bd 1cb0 a8bc a2b1 80bc
00000120: e628 33bc d6f1 e0bc 17e0 78bc d352 9f3c
00000130: fb82 d9bb 689d bfbc 742a d6bc e355 6cbc
00000140: 5b02 cbbc 081e fdbb da19 9ebc aa1d 9a3b
00000150: 2d98 233c 00e3 d2bc 4832 ca3b 7fac 91bc
00000160: 98db 8b3b 8ac1 e73c 7a22 7b3c 6615 96bc
00000170: 966c fd3a 2182 b93b 263d c1bb 24b0 84bc
00000180: 8674 30bc 58ab 413c e54c 49bb 352f 703c
00000190: 5169 363b 8998 bd3b 1bf8 e2bb de7b 433c
000001a0: 1c03 f1bc c9eb 1dbd 82a1 37bd 3da0 7cbc
000001b0: 524c 10bb b183 afbc 726f 84bc 2737 41bc
000001c0: 57a3 b4bc c0df 0abd d998 0bbd 85ce 2fbd
000001d0: 65f2 a0bc 820f e5bc 00e5 c0bb 01d9 c53b
000001e0: e69d e9bc 2416 11bd 3f0b a9bb 8c9b 233a
000001f0: fab0 853c aa37 973a 1c70 84bc b6ae 94bc
00000200: c125 dcbb 794b c7bc b68f 2abd a579 9cbc
00000210: 9ceb 27bd 5bf1 f2bb edb7 26bd 9042 59bc
00000220: 3fe8 2cbc f5b6 8fbc fec4 68bc 5aa4 f1bb
00000230: 34ba b2bb 6438 47bd a531 88bc 72d7 bd3b
00000240: aa2c 363b 6c74 36bc 926e 8ebc e90e 38bc
00000250: a97e 08bd cfca 533c c537 00bd d57a b1bc
00000260: e137 dcbb 4d0e 32bd a4c9 4cbd 410d 95bc
00000270: d8c6 9cbb b553 24bd 7f09 bb3b 21e9 2cbd
00000280: ed24 90bb 2292 d1bb 5035 403c de85 ef3c
00000290: 80b7 5ebc 18c6 413d 0150 603d 0dcd 003d
000002a0: 35f9 1d3d cfb7 5ab9 9a5c 113d 506a df3c
000002b0: 0d9d 263d 9e0f fd3c 7c80 b23c 5c93 0cbb
000002c0: 462e debc 1377 dcbc 33e7 a1bb 17ae a5bc
000002d0: b97e 03bd 146a 08ba d4ae fabc 5fa5 6abc
000002e0: fb46 093c 9ce2 a73b 7792 d6bb 50a2 053c
000002f0: d573 f93a aba0 8d3b 48f5 0ebc f215 6f3b
00000300: 66aa 25bb 3b96 cc3b 7c59 0bbc c4c2 efbc
00000310: 2824 8abc 89fb e9bc 0390 86bc 722f 6e3c
00000320: 70ac f9bc bd05 d0bc 800f c8bc fd7a e3bc
00000330: c80c 423c f1af 323c 338d 773c 7f50 94bc
00000340: 593b 35bc d50d 30bc 374a 28bc 0ef8 fe3b
00000350: 5af5 d43c 48e5 ad3b 4dab 163d 2eaa 153d
00000360: 7ecc 353c 692e 013d 1b8d f53c 2556 173d
00000370: c19f 3dbc 2772 1cbc a4a9 e23c 71eb ef3c
00000380: 6128 6e3c da61 e13c 5e26 0d3d 6cc2 993b
00000390: b6f0 1ebb 5de3 993c 212e a13c e8cf 9f3c
000003a0: 36b4 1c3d 626b 1d3d 18f8 843c d5e2 35bc
000003b0: d7fb 5fbc f889 843c 7dd4 a23b 6407 003c
000003c0: 4849 28bc bd96 bf3c 5be9 013d ce0b 163c
000003d0: 9555 043d 6c19 cebb ccd1 7b3c 3e06 5cbc
000003e0: c80d a13c bff5 48bc a7bd bc3c ce3e 13ba
000003f0: 2d0b 3cbc 3d91 993c d94d f2bb 7671 afbc
0.00049557915 -0.011704714 0.011426822 0.01314114 0.00038423738 -0.0226229 -0.00011797498 0.021320874
0.02510254 0.0034791396 -0.00084781635 0.021749703 -0.0057538846 0.036833506 0.01588739 0.041158136
0.031436082 0.031502657 0.0216179 0.018586256 0.015593475 -0.0010554708 -0.010968123 0.026104733
-0.010312076 0.014759159 0.021383315 0.018631218 0.03931195 0.031058501 0.027717456 0.035107113
0.012784365 0.023260562 0.020096924 0.012016178 0.014071339 0.003797463 -0.0155396685 -0.011066632
-0.031241262 0.016070561 -0.013168992 -0.0022044776 -0.0069710324 -0.029742744 -0.0023927449 0.0022935597
-0.025197024 -0.01875613 0.004744363 0.006939921 -0.01334353 0.009395878 0.0142107885 0.002282931
-0.013586397 -0.0006241885 0.0006474965 0.004200634 -0.00678231 -0.0045830756 -0.009437102 -0.021984084
0.0025425216 0.008060405 0.009839772 0.010777242 -0.020513969 -0.04058363 -0.020591788 -0.015709702
-0.010935044 -0.027459066 -0.015190146 0.019448673 -0.0066379285 -0.023390487 -0.02614329 -0.014424774
-0.024781397 -0.0077245273 -0.019299436 0.0047032433 0.009985012 -0.025743008 0.006170545 -0.017782448
0.004268121 0.028290529 0.015328044 -0.01832075 0.0019334729 0.0056612645 -0.005897182 -0.016197272
-0.010769969 0.011820637 -0.0030715999 0.0146596925 0.002783377 0.005786006 -0.006926549 0.011931388
-0.029420428 -0.03855494 -0.04483176 -0.015419063 -0.0022018147 -0.0214251 -0.016166423 -0.0117929345
-0.022050543 -0.03390479 -0.034081314 -0.04292156 -0.019646833 -0.027961496 -0.005886674 0.006037832
-0.028517675 -0.035421506 -0.0051588113 0.0006241135 0.01631974 0.0011536975 -0.01616674 -0.018149715
-0.006718368 -0.02432798 -0.04164096 -0.019100973 -0.04099618 -0.0074140257 -0.04070275 -0.013260499
-0.010553419 -0.017543295 -0.014207123 -0.0073743286 -0.005454326 -0.048637763 -0.016625235 0.0057935053
0.0027797618 -0.011136156 -0.017386708 -0.011234024 -0.033323918 0.012926771 -0.031303186 -0.021665016
-0.0067205285 -0.04347067 -0.049996987 -0.018194797 -0.004784446 -0.04011889 0.005707919 -0.042214517
-0.004398933 -0.006395594 0.011731461 0.029238638 -0.0135935545 0.047308058 0.054763798 0.03144555
0.03856774 -0.00020858574 0.035488702 0.027272373 0.04067712 0.030891236 0.021789782 -0.0021450138
-0.027121674 -0.026912248 -0.004940891 -0.020224614 -0.032103274 -0.0005203795 -0.030600943 -0.014321654
0.0083787395 0.0051234495 -0.0065482217 0.008156374 0.0019031713 0.0043221316 -0.008725472 0.0036481586
-0.0025278567 0.006243495 -0.008505221 -0.029267676 -0.016862944 -0.028562324 -0.016426092 0.014537679
-0.030477732 -0.025393361 -0.024421453 -0.027768606 0.011843868 0.0109062055 0.015109348 -0.01810479
-0.011061513 -0.010745485 -0.0102716 0.0077810353 0.025995899 0.0053068735 0.03678446 0.03653925
0.011096118 0.0315384 0.02997451 0.03694739 -0.011573733 -0.0095487 0.027668782 0.029287072
0.014535994 0.02751248 0.034460418 0.0046923663 -0.0024252362 0.018785173 0.019675316 0.019508317
0.0382578 0.038432486 0.016231582 -0.011101444 -0.013670883 0.01617907 0.0049691782 0.007814262
-0.010271378 0.023387307 0.031716686 0.009158088 0.03230818 -0.0062896516 0.015369844 -0.013429223
0.019659892 -0.012265622 0.023039652 -0.00056169636 -0.011477274 0.018746013 -0.007394534 -0.021416407

net.2.bias f4 [32]
00000000: bfc4 393d 77aa 3d3d 70f5 143b 3149 393c
00000010: fa84 e73c 10f2 2f39 b294 803d dd5a 173d
00000020: 0eba fd3c 5c6f ad3c df83 1f3c 963e 383c
00000030: fe65 793c 8c43 883c 57b2 3a3b d102 c03c
00000040: 8259 23bc b0e6 2a3d 2af2 593d 3e47 a538
00000050: c68a e13c a406 663c 3367 0c3d e42c 8d3c
00000060: ba73 873c 2ad7 143d b338 ff3b 7004 3e3d
00000070: 35ed 043d e162 443d d842 e63c 7344 fa3b
0.045353647 0.046305146 0.00227293 0.011308954 0.02826165 0.00016779476 0.062783614 0.03695189
0.030972507 0.021171264 0.00973603 0.01124539 0.015222071 0.016633771 0.0028487646 0.023438843
-0.009970071 0.041723907 0.05320946 7.881083e-05 0.027531993 0.014039669 0.034278106 0.01723332
0.016534675 0.03633801 0.0077887415 0.04639095 0.03245278 0.04794586 0.028108045 0.0076375543

net.4.weight f4 [1, 32, 5, 5]
00000000: 552d 21bc 4e0a 993b e3ec 593d e8e7 8b3c
00000010: c758 283d 8200 e83c 8121 2d3d aaad 5f3d
00000020: 662f 273d 2372 3a3d 1d55 d33c b909 643d
00000030: 9475 5b3d 59ff 7e3d 7ff1 c1bb 4a0e b73c
00000040: cc32 f23c e5cd a2bb 1329 2a3b bb68 173d
00000050: 8dd5 d9bc c92d b1bc 640a 003d 2298 9b3c
00000060: 5bac 8a3c 2c83 ddbc 09d4 e2bc 1283 42bd
00000070: d392 02bd 8559 5bbb 62a3 77bc 2cd2 3e3c
00000080: 0ba7 04bd 75f1 0bbd 6290 febc eec9 dc3c
00000090: 53b1 c3bb 13a3 c63c 255b 533d accc f73c
000000a0: 074f 193d 9a17 1c3d ab49 983d b1c0 953d
000000b0: 1498 923d fbec 853d edd6 943d c317 5b3d
000000c0: 5eab 473d 4f01 1e3d 0dff b83c a173 ffbb
000000d0: 9fdb f93c 3511 1c3c 14bf 443d 575f 003b
000000e0: 9aff d93c 2b4b 633d 7e2a 2c3d 76c5 0e3d
000000f0: d975 953c 42ff 00bb 6ac9 283c 133a 573d
00000100: cb52 203d 053f 313d 63f2 233d 6ada 883c
00000110: 3a55 503d bafd fabb 2302 213d 74d5 263d
00000120: ef1d 34bc a3d2 263d 314a dc3c 1299 fabb
00000130: 12da 373d 658d aa3c 1ffa 323c 3ba3 023d
00000140: a8c3 b73c 3d62 fd3b 6e84 703c eb98 023d
00000150: 7c94 223c e39d 323d 77de b53c caa0 143d
00000160: e458 d13c 3b70 363d 882b c03b eadf 393d
00000170: 860e 223c 40c4 cd3c 2803 1a3d 3f66 463b
00000180: 8c3b 403d 4c40 e33c 518e 343d fc89 663d
00000190: 81f1 ab3c 86f4 f63b 83f0 1f3d 96e6 583d
000001a0: 2231 febb 413e 4a3d 0ea7 5f3d 7e8d 5e3d
000001b0: e896 b43b 8a00 413d 3363 3b3d 8246 603c
000001c0: beba 343d 695c d43c cf71 623d e006 163d
000001d0: 8639 3e3c 7549 c83c 15cc f03c 13b6 09bb
000001e0: b502 0d3d cb3b c93c eb0d d53a 8853 0d3a
000001f0: 8141 2b3c a3c8 8b3c 2fe9 bdbc 81be a53c
00000200: 1790 583d 78c9 703c 253d b6bc 92ab 97bc
00000210: 0069 dc3b e11b 0a3d b0ed 463d d5f9 0dbd
00000220: 8a1c e33c c8ec 463d 40a6 173d 726a 533d
00000230: 0d8b 04bd 5c22 d6bc 8b16 6ebc 89b9 6e3a
00000240: a017 303d c878 ab3c fa55 a5bb d90c 89bc
00000250: 2fea 213d a9b2 1b3b 591b 8ebb 3a97 06bd
00000260: a07b 08bd c730 a8bc 9ecc 58bd 4683 56bd
00000270: 3457 8abd 28ed 36bd 148c 86bd 44cf ceba
00000280: 7ff5 2fbd ea60 0dbd be66 3fbd 28ca 30bd
00000290: 6e7f 91bd 6438 91bd 69bd a5bd d2f0 6fbd
000002a0: edfc 54bd e4cb 1bbd 20c0 9cbd 3714 5dbd
000002b0: 8c05 3ebc 4cb6 0abd 08ce 1abd 8853 3a3d
000002c0: 80c9 653d 48bb 2c3d 0afd 963c 07d2 113d
000002d0: 398a 3a3d d32f d83c 4049 553d 7f67 2c3d
000002e0: 4fe4 ff3c 44be ab3b 2940 5f3c 2cee 663c
000002f0: d44a d7b9 8564 c4ba 183a 333c ac6f 33bc
00000300: a2fd edbb 7730 6f3c bd0c acbc 320f 7c3c
00000310: a0d0 b13b c6c4 bdbc c709 48bc 4194 6cbc
00000320: f9bb 263a 9563 c33c f861 6237 b470 bd3a
00000330: f091 103d a362 a93b 9cb6 0abb f819 d83c
00000340: 6fc0 20bc 81fb 223d 06ca 183d 4d28 c33c
00000350: 644e 253d ccf1 8b3d d48d dd3b a15f 743d
00000360: 4b31 663d c331 753d 3228 2d3d b458 ac3c
00000370: f8b7 6d3c 544a 653d 042e 70ba 8acc d83c
00000380: 688b 74bc a7b2 343d d2e3 34bc c8f2 9b3c
00000390: 1dd2 373d dcc6 29bc e8b6 893b 78ea bd3c
000003a0: 24c3 903c 6722 31bc d3ea 123d 8758 953b
000003b0: 5727 1bbd 521e ccbc 93cf ca3c 3ddb a7ba
000003c0: 026d 96bc 29af 20bd 00fa 263b 0c7e 16bd
000003d0: 60ae 0a3d 6899 c0bc 58d3 45bd 47ad 29bd
000003e0: 70c4 f1bc d660 e2bb 3def 9eba 7d9e ba3c
000003f0: 9ec7 523d 4d6f 593d c73d 443d 4571 5f3d
-0.009837468 0.004670418 0.05320443 0.017078355 0.04110029 0.028320555 0.04226828 0.05460898
0.040816687 0.045519006 0.025797421 0.055673335 0.053578928 0.062255237 -0.005918681 0.02234568
0.029565237 -0.004968392 0.0025964424 0.036965113 -0.026591087 -0.021628277 0.03125991 0.018993441
0.016927889 -0.027040087 -0.027688997 -0.04748828 -0.031878304 -0.0033470106 -0.015114637 0.011646789
-0.032385867 -0.03416582 -0.031074706 0.026951756 -0.0059720664 0.024247682 0.051600594 0.030248962
0.037428882 0.038108446 0.07435926 0.073121436 0.07157913 0.06539341 0.07267556 0.053489458
0.048747413 0.038575467 0.022582555 -0.0077957665 0.030500231 0.009525587 0.04803379 0.0019588077
0.026611138 0.055491608 0.04203271 0.034856282 0.01824467 -0.0019683396 0.010301927 0.05254562
0.039141458 0.04327299 0.04002608 0.01670571 0.05086253 -0.007659641 0.03930868 0.04073091
-0.010993465 0.040728223 0.026890846 -0.007647642 0.044885702 0.020819375 0.010923891 0.03189395
0.022432163 0.007732658 0.014680011 0.031884115 0.009923097 0.043607604 0.022200806 0.036286153
0.025555082 0.044540625 0.0058645643 0.045379557 0.009891158 0.025117993 0.037600666 0.0030273346
0.04693179 0.02774062 0.044081036 0.056283936 0.020989181 0.0075364737 0.03904773 0.05295428
-0.007757322 0.049375776 0.054602675 0.054334156 0.0055111535 0.047119655 0.0457489 0.013688685
0.044123404 0.02592297 0.055284318 0.03662765 0.011610394 0.02444909 0.029394189 -0.0021013066
0.03442641 0.024564644 0.0016254758 0.000539117 0.010452629 0.017063444 -0.02318248 0.02023244
0.05287179 0.014696471 -0.022245953 -0.018514428 0.006726384 0.033717994 0.04856652 -0.034662087
0.02772357 0.048565656 0.037023783 0.051615186 -0.03235917 -0.02613943 -0.014531742 0.00091066264
0.04299128 0.020931616 -0.0050456496 -0.016729759 0.039529976 0.0023757613 -0.004336756 -0.032859065
-0.033321023 -0.020531071 -0.052929513 -0.052371286 -0.06754914 -0.044659764 -0.065696865 -0.0015778323
-0.042958733 -0.034516253 -0.046728842 -0.04316154 -0.071043834 -0.07090834 -0.08092768 -0.058579274
-0.05199902 -0.038036242 -0.076538324 -0.053974357 -0.011598002 -0.033865258 -0.037794143 0.045489818
0.05610037 0.042170793 0.018431205 0.03560069 0.045541976 0.026389992 0.05207181 0.04209089
0.031236796 0.0052411873 0.013626137 0.014094871 -0.00041063747 -0.001498357 0.010939144 -0.010951918
-0.0072629014 0.014598957 -0.021002168 0.015384482 0.0054264814 -0.023165118 -0.012209362 -0.014439643
0.00063604076 0.023851195 1.349346e-05 0.0014453144 0.035295427 0.005169229 -0.0021165973 0.02637957
-0.009811505 0.039790634 0.03730204 0.023822928 0.040357962 0.068332285 0.006761292 0.05966151
0.056199353 0.05986191 0.04227466 0.02103839 0.014509194 0.055979088 -0.00091621303 0.02646472
-0.014925815 0.04411569 -0.011040645 0.019036666 0.044878114 -0.010362353 0.0042027123 0.023183092
0.017671175 -0.010811425 0.035868477 0.0045576724 -0.037879314 -0.024916802 0.024757182 -0.0012806427
-0.018362526 -0.039229546 0.0025478601 -0.0367413 0.033857703 -0.02351065 -0.048297256 -0.041425016
-0.029512614 -0.0069085164 -0.0012125742 0.022780651 0.0514599 0.05308466 0.047910478 0.05455138

net.6.weight f4 [10, 784]
00000000: ada4 96bc 0fdd 34bd aff9 a3bb cdfd 16bd
00000010: 8bb6 35bd 4a2e dabc fbc9 3bbc d594 8e3c
00000020: 5365 77bc e9a5 febc 529a eb3c 4703 d2bb
00000030: b4b1 a339 fe2b 323a 1b87 0b3d f89d 47bc
00000040: a485 6ebc f74b 103b bf5c af3c 25a2 033d
00000050: 1707 c23c 2c0b 8cbb fa5a 013c e184 adba
00000060: ad54 5fbc 64ae 3f3a 6d51 f93b 414e b13c
00000070: 3421 fb3b a7fd 34bd d2eb f6bc 967a 0ebd
00000080: 7365 f2bc 9d77 e7bb 8ec7 e8bc 3a6a da3c
00000090: 87e8 30bc 9f71 ffbb 858c 6bbc cc01 b53b
000000a0: cdc2 0c3c 6a45 9e3a 3033 5dbc b544 80bc
000000b0: fe89 93bc bc30 c63c 156f c2bc 7a82 033c
000000c0: 670b 35bc 40f6 a8bc 91c6 223c 2524 be3c
000000d0: 58cb 1e3c d817 e13b 6d16 5bbc e144 e33c
000000e0: 540c febc 5cba 36bd 3af9 d1ba 83cb 2bbc
000000f0: 6196 81bc 9f74 123c 6bad a6b9 c814 9a3c
00000100: 5004 0ebd c98a fbbc 4134 9ebc 6a47 253d
00000110: 4fac 063c 3aa3 333c 08f4 9bbc 8511 a83c
00000120: fc80 91bc ada3 8fbc ac8c d5bc 703b fcbb
00000130: 56f2 4b3a 17f4 c8bc 0719 853c 0ed1 1ebc
00000140: 656e 73bb 4938 ebbc b6f8 263a c514 c5bc
00000150: 2998 ecbb 33d7 fdbc adf4 debc 4fad f1bb
00000160: 2d7b 2bbd 6792 2abd 03df 203c 7e03 03bd
00000170: 043e f0bb ffc1 40ba b1d9 e23c cb57 0e3a
00000180: db69 91bc 1a7b e33c 23be 94bc 4bc0 0cbd
00000190: 6d6f f63c c9b0 1b3d 85c6 32bc ce40 ea3c
000001a0: 6989 c2bc 79c2 193d 9abd bd3c 29a1 a8bc
000001b0: 507e c23c 7804 febb 023f 4d3c 9c2d e73c
000001c0: 67b0 ce3b b448 9ebb eda3 fbbc 54e5 c33c
000001d0: 7d5b ec3b 72d5 3cbc 7755 933c c9e4 6c3c
000001e0: d19f 83bc 8909 aa3c 3f84 cebc 271e 683c
000001f0: e3a5 dabc c02d b83c 2014 96bc 2b05 de3c
00000200: 653a ac3b ed92 88bc 5976 8d3c 8395 83bc
00000210: f680 0dbd 5278 393c 2e98 013d 3b7f ac3c
00000220: 52a6 93bc 1246 143d ad50 203c cf5d 1a3c
00000230: e221 e7bc 5972 713b e60e d23b 9a36 d1bb
00000240: 0eed a9bc f0bc 26bd d2c7 eb3b adca e3bc
00000250: 1775 afbc 04d4 a2bc 89bf bfbc 0cb7 33bc
00000260: 94b2 97bc fdda 3dbb b8bc d73c 36d1 f1bc
00000270: 92c0 efbc 765d ce3a 47af 2dbd 023b c93c
00000280: 1601 c33b 4b67 543c f2c2 80bc f25a 16bd
00000290: 8059 eaba bc17 14b9 edd8 143d 5ca7 db3c
000002a0: e7ff 26bd 4a88 3ebd 1ce2 6b3c 7542 02bc
000002b0: cc74 8bbc 06c8 233c 774e 323b 0d95 e23c
000002c0: 614f d23c 7692 a23c 4568 1fbc 2003 b93b
000002d0: f7dc a33c e524 97bc e368 3abd 5054 3bbd
000002e0: 635e 2fbd 8305 c83c 0935 0cbb 1668 2bbc
000002f0: c73b 703b 6bbc e5bc b33e e1bc 5c21 a63c
00000300: 5869 18bc 4502 613c e18f 6f3c 1abd d43c
00000310: 467e 0dbc 949a 12bd 2fa3 503c c07d 53bc
00000320: 29e2 053d be92 033b b8ee a3ba cbe3 44bc
00000330: c134 563c 00c6 5439 fa54 0cbd 9fad a13a
00000340: 85c0 f63b 20c8 a13c 9aac 26bd 4eb1 acbc
00000350: 400b ce3c 6c37 12bc 2513 3c3c b4a7 96bc
00000360: 39cb 9e3b 5125 a1bc 1b97 d4bc c043 623c
00000370: 0316 10bd 9242 96bc 1106 07bd c785 873c
00000380: 2240 ad3c 264e 2abd 3e3f dd3a 7c82 adbc
00000390: 8cf4 98bc f217 cfbc 7120 943c 9271 ff39
000003a0: 8857 02bd 10b9 1fbb be9b 9bbc 4356 53bc
000003b0: 905a 7c3c d146 543c 83eb 83bc dc05 18bd
000003c0: 82c5 f13c 0752 873c 15ce 82bc 4fc2 d33c
000003d0: b743 03bd 05a6 803c 3997 85bc cb4c 993a
000003e0: 96da 2bbd 0279 0dbd c7d4 bc3c ab09 3cbc
000003f0: 51a7 e4b9 ba17 2f3a 899e 02bc a840 a83c
-0.01838907 -0.04415613 -0.00500413 -0.036863137 -0.04436354 -0.0266334 -0.01146173 0.017404953
-0.015099841 -0.031084972 0.02876011 -0.006409082 0.00031222182 0.00067967165 0.034064393 -0.012183659
-0.01455823 0.0022017935 0.02140653 0.032137055 0.023685021 -0.0042737927 0.007895226 -0.0013238454
-0.013631028 0.0007312058 0.0076085837 0.02164376 0.00766387 -0.044187214 -0.030141745 -0.034784876
-0.02958939 -0.0070638196 -0.028415468 0.02666198 -0.010797626 -0.007795527 -0.014376764 0.005523896
0.008591366 0.001207513 -0.013500974 -0.015657762 -0.018010136 0.02419316 -0.023734609 0.0080267135
-0.011050082 -0.020625234 0.009935037 0.023210594 0.009692036 0.0068692975 -0.013372046 0.027742805
-0.031011738 -0.04461132 -0.001601971 -0.010485533 -0.015818777 0.008938937 -0.00031791194 0.018808737
-0.03467208 -0.030705826 -0.019312026 0.04035131 0.0082197925 0.010964209 -0.019037262 0.020516166
-0.0177617 -0.017534101 -0.026068054 -0.007697515 0.00077799463 -0.024530454 0.016247286 -0.009693397
-0.0037144658 -0.028713362 0.0006369458 -0.024057755 -0.0072202873 -0.030986404 -0.02721628 -0.0073753963
-0.041865516 -0.041643526 0.009818795 -0.031985752 -0.0073316116 -0.00073531264 0.027691694 0.0005429952
-0.017750671 0.02776866 -0.01815707 -0.034363072 0.030082429 0.038010392 -0.010911589 0.028595354
-0.023747163 0.03753898 0.023161698 -0.02058466 0.023741871 -0.0077519976 0.012527229 0.02821999
0.00630765 -0.004830444 -0.030717814 0.023913063 0.0072130547 -0.011525499 0.017985089 0.0144588435
-0.016067417 0.0207565 -0.025209544 0.014167345 -0.02669043 0.022482753 -0.018320143 0.027102074
0.0052559846 -0.016671622 0.017268347 -0.016062504 -0.034546815 0.0113201905 0.03163927 0.021056762
-0.018023644 0.036199637 0.00978486 0.00942178 -0.028214399 0.0036841838 0.0064104674 -0.006384683
-0.02074292 -0.04070753 0.0071954513 -0.027806604 -0.021418137 -0.019876488 -0.02340676 -0.010968935
-0.01851777 -0.0028969639 0.026335105 -0.029518705 -0.02926663 0.0015744406 -0.042403486 0.02456427
0.005951057 0.01296408 -0.015717957 -0.036707826 -0.0017879456 -0.00014123222 0.03633969 0.026813202
-0.04077139 -0.046516694 0.01439717 -0.007950415 -0.017023467 0.00999642 0.0027207413 0.027658964
0.025672616 0.019845229 -0.00972945 0.0056461245 0.020002825 -0.01845021 -0.045510184 -0.045734704
-0.042814624 0.02441669 -0.0021393916 -0.010461828 0.0036656724 -0.028043946 -0.027495718 0.020279579
-0.00930246 0.013733451 0.014621706 0.025969077 -0.008636063 -0.03579195 0.0127342185 -0.012908399
0.032686386 0.0020076479 -0.0012507057 -0.012017201 0.013074101 0.00020291656 -0.034260727 0.0012335068
0.0075302743 0.019748747 -0.04069195 -0.02108064 0.025151849 -0.008924346 0.011479174 -0.018390514
0.0048460034 -0.019671114 -0.025950959 0.013810098 -0.035177242 -0.01834229 -0.03296477 0.016543282
0.021148745 -0.041578434 0.001687981 -0.021180384 -0.018671297 -0.025279973 0.018081876 0.00048722007
-0.031821758 -0.002437178 -0.018995162 -0.012898984 0.015402451 0.012956337 -0.016103512 -0.037114963
0.029513124 0.016518606 -0.015967408 0.02584949 -0.032047 0.015704164 -0.01630746 0.001169586
-0.041956507 -0.03453923 0.023050679 -0.011476914 -0.0004361221 0.0006679256 -0.007972368 0.020538643

net.6.bias f4 [10]
00000000: 33b8 51bc add9 083c 49f9 75bc a685 843c
00000010: ab69 ddbb 8436 c1bc e253 2e3b ca89 4abd
00000020: c456 4dbd 58d5 2ebb
-0.012800264 0.008352679 -0.0150130475 0.01617701 -0.0067569814 -0.023585565 0.002660029 -0.049447812
-0.050131574 -0.0026677456
