lab4/model/best.pth (torch, 263324 bytes, 7 tensors)

net.0.weight f4 [64, 1, 9, 9]
0	0xbd9837d0	-0.074325204
1	0xbd25d23f	-0.04048371
2	0x3d62cbfc	0.055370316
3	0x3daf9617	0.08573549
4	0xbc566abb	-0.01308697
5	0xbcb2cfae	-0.021827545
6	0x3d35220d	0.044221926
7	0xbc97a199	-0.018509673
8	0x3c9f4704	0.019443043
9	0x3d73a984	0.059487835
10	0xbcac3082	-0.021019224
11	0xbce29dee	-0.027663197
12	0xbd7a722b	-0.061144035
13	0x3d91d4a2	0.071206346
14	0xbcd7a694	-0.026324548
15	0x3db97b5b	0.09056731
16	0xbda11095	-0.07864491
17	0xbd9e5154	-0.07730356
18	0x3dcdf9a8	0.10057384
19	0xbd4fac87	-0.050701644
20	0x3a9bec6b	0.001189602
21	0x3cc63d55	0.024199167
22	0xbb262246	-0.0025350018
23	0x3d7bc0d5	0.061463196
24	0xbd13db8d	-0.03609805
25	0x3d2b2bff	0.041790005
26	0x3de152ae	0.11002098
27	0xbd2f8cac	-0.042858765
28	0x3d8028b5	0.06257764
29	0x3d9f664f	0.07783186
30	0x3d40fa25	0.047113556
31	0x3d8e77db	0.06956454
32	0x3a0be02c	0.00053358334
33	0x3d40ae5f	0.047041293
34	0x3c338126	0.010956084
35	0x3d9cc030	0.07653844
36	0x3ca24102	0.019806389
37	0xbd89a2ca	-0.06720503
38	0x3df98818	0.12184161
39	0x3e0091fa	0.12555686
40	0x3d1dd8e9	0.03853694
41	0x3d3a2376	0.045443974
42	0xbd8a6197	-0.06756895
43	0x3c8cbed7	0.017180843
44	0xbc7c7736	-0.0154092815
45	0xbcd8cb16	-0.026464026
46	0x3d4ee14e	0.050507836
47	0x3dc16ea0	0.09444928
48	0x3d373354	0.044726685
49	0x3ccb38eb	0.024807414
50	0x3be739fc	0.007056473
51	0x3d8880c0	0.06665182
52	0x3d5a060f	0.053228434
53	0xbce60d13	-0.028082406
54	0xbceb5082	-0.028724913
55	0x3ddefdcd	0.108882524
56	0xbb35ec08	-0.0027759094
57	0xbdd06844	-0.10176137
58	0x3d02b305	0.031909008
59	0x3da34529	0.07972176
60	0xbded0a38	-0.11574215
61	0xbd2aeb18	-0.04172811
62	0xbd8e3c95	-0.06945149
63	0x3db40223	0.0878947
64	0x3d812583	0.06305983
65	0xbdd8871a	-0.105726436
66	0x3d609758	0.054831833
67	0xbd350c1b	-0.044200998
68	0xbc1fe537	-0.009759239
69	0x3c08bd5e	0.00834593
70	0x3d8b5ee2	0.06805207
71	0x3c1d5749	0.00960333
72	0x3d6f1088	0.058365375
73	0xbd2717e5	-0.040794272
74	0xbd01c724	-0.031684056
75	0xbd3e4776	-0.04645487
76	0xbc8a9a25	-0.016919205
77	0x3c1cc614	0.00956871
78	0xbdc8110a	-0.09768875
79	0x3cb30d4e	0.02185693
80	0xbdd49842	-0.103806034
81	0xbdd193fb	-0.10233303
82	0x3ccdb0be	0.025108691
83	0x3ddf0086	0.10888772
84	0xbb9bfd2c	-0.004760405
85	0x3d130896	0.03589686
86	0x3d46b2ce	0.048510365
87	0x3dcc5b12	0.09978308
88	0x3cecf884	0.028927095
89	0x3c3d1c10	0.011542335
90	0xbbce37ee	-0.0062932884
91	0xbd969f20	-0.073545694
92	0x3d705f15	0.058684427
93	0x3deccfbc	0.1156306
94	0xbda7e792	-0.081984654
95	0x3d221828	0.03957382
96	0x3d6afdf9	0.057371113
97	0x3d694d9b	0.056958776
98	0x3bf82354	0.007572571
99	0x3d2a8079	0.041626427
100	0x3df8b18f	0.121432416
101	0x3cc8eb2a	0.024526197
102	0x3dbdb93a	0.09263845
103	0xbd9b917d	-0.07596109
104	0x3dcdebdf	0.100547545
105	0x3e036860	0.12832785
106	0x3deb4ba2	0.11489035
107	0x3cd71edb	0.02625983
108	0x3d61a419	0.055088136
109	0x3d72c4df	0.059269782
110	0xbd3588a7	-0.044319775
111	0x3ca337da	0.019924093
112	0x3d99ec36	0.07515757
113	0xbcb070d9	-0.021538185
114	0x3d919b02	0.071096435
115	0xbd6b2fbe	-0.057418577
116	0x3dea529a	0.11441536
117	0x3d5be281	0.053682808
118	0x3b43dd3c	0.0029886505
119	0xbd23e11e	-0.04000961
120	0x3d681a6d	0.056665827
121	0xbdc0b165	-0.09408835
122	0x3dd99fea	0.10626204
123	0x3d28030c	0.04101853
124	0x3ab51862	0.0013816471
125	0x3d4457d9	0.04793534
126	0xbdc13542	-0.09433986
127	0x3db48fd0	0.088164926
128	0xbcfe2c28	-0.031026915
129	0xbdc9f757	-0.098616295
130	0xbdc5164c	-0.096233934
131	0x3dc5317c	0.09628579
132	0xbdde132f	-0.10843503
133	0xbdda5105	-0.106599845
134	0x3d5a47f5	0.05329128
135	0xbd8aefe8	-0.0678404
136	0x3cbeaefe	0.023276802
137	0xbd48a1d3	-0.048982453
138	0xbd645a26	-0.055750035
139	0xbdc82db8	-0.09774345
140	0x3dbd20d1	0.09234775
141	0xbdb6cd55	-0.08925883
142	0x3dd527a0	0.104079485
143	0xbd070948	-0.032967836
144	0x3d4dd247	0.050249364
145	0x3c8a6891	0.016895564
146	0x3d854162	0.065066114
147	0x3d00dd77	0.031461205
148	0x3dec12f3	0.11527052
149	0x3d6a9fe3	0.057281386
150	0xbce3ccc3	-0.027807599
151	0x3d4ab49c	0.04948865
152	0xbcdd9303	-0.02704764
153	0xbc8facc7	-0.017538441
154	0xbc589b88	-0.013220675
155	0xbdc2f40f	-0.09519207
156	0xbd9dc982	-0.0770445
157	0xbd9721b2	-0.07379474
158	0xbcd3a1fa	-0.025834072
159	0xbc878c81	-0.01654649
160	0x3d5db3f0	0.05412668
161	0xbc539e1a	-0.012916112
162	0x3de7c030	0.11315954
163	0x3c27dc76	0.010245433
164	0xbdabbd7c	-0.08385751
165	0xbd76f86a	-0.0602955
166	0xbd4d2dcb	-0.0500925
167	0x3dcf754c	0.101297945
168	0x3d40443b	0.04694007
169	0x3d476b0e	0.04868608
170	0x3d811245	0.06302313
171	0x3cf808fe	0.030277725
172	0x3bba16d3	0.0056789904
173	0x3d5fd6be	0.054648153
174	0xbd063247	-0.032762792
175	0x3d535a9c	0.051600084
176	0x3ca40c23	0.020025318
177	0x3d5f1db6	0.054471694
178	0xbdc3695b	-0.09541579
179	0x3d0c831c	0.034304723
180	0xbcafdba7	-0.021467043
181	0xbc9c41f9	-0.019074427
182	0xbd8689a8	-0.065692246
183	0x3ddd631a	0.10809918
184	0x3d3d4add	0.046213973
185	0xbd01e711	-0.031714503
186	0x3de36123	0.11102512
187	0x3dc5fc64	0.0966728
188	0xbc6a2b8b	-0.014292608
189	0xbd83ba17	-0.06431978
190	0xbd1507dd	-0.036384452
191	0x3d18cf1a	0.037306882
192	0xbca4d875	-0.020122746
193	0xbda8cc5b	-0.08242103
194	0x3d9b84d4	0.07593694
195	0xbc514211	-0.012772099
196	0x3cbfd686	0.023417722
197	0xbdba9255	-0.09109942
198	0xbda71098	-0.08157462
199	0xbdd1502c	-0.1022037
200	0xbd7a02a9	-0.061037693
201	0x3e040e5e	0.12896106
202	0xbbf3abbe	-0.0074362447
203	0xbc72d68b	-0.014821659
204	0xbd6097cf	-0.054832276
205	0x3c8273cb	0.015924355
206	0xbdbf1965	-0.093310155
207	0x3de07672	0.10960092
208	0x3d2d2aed	0.042277265
209	0x3dd7a89b	0.10530206
210	0xbd02bc13	-0.031917643
211	0x3c92d6e6	0.017924737
212	0x3dd90d66	0.10598259
213	0x3de5e10b	0.11224564
214	0x3d2204a0	0.039555192
215	0xbd00ae9f	-0.03141653
216	0x3d7a33ca	0.061084546
217	0x3d6e0477	0.058109727
218	0xbd967806	-0.073471114
219	0x3c940ab8	0.018071517
220	0xbd29c674	-0.041449025
221	0x3dcb72eb	0.09934028
222	0xbdeabcae	-0.11461769
223	0x3db33aea	0.08751471
224	0x3c08933d	0.008335886
225	0x3d98afc4	0.074554
226	0xba84ef4b	-0.0010142116
227	0xbd9e3776	-0.07725422
228	0xbdf9508c	-0.12173566
229	0xbd248e63	-0.040174853
230	0xbdf536e7	-0.119733624
231	0xbddfba87	-0.10924249
232	0xbd998b3f	-0.07497262
233	0x3d5ea657	0.054357853
234	0x3c94f85b	0.018184831
235	0x3d8f7d4f	0.070063226
236	0xbe02177d	-0.12704273
237	0xbdc69fb0	-0.09698427
238	0x3d766981	0.06015921
239	0xbd9c967c	-0.0764589
240	0x3d79ed3e	0.061017267
241	0xbd8d5be8	-0.06902295
242	0x3ca1c41a	0.019746829
243	0x3d53184d	0.051536847
244	0x3ce730ee	0.028221574
245	0xbc946b4b	-0.018117568
246	0x3d876902	0.066118255
247	0xbdbb81cc	-0.09155616
248	0x3d55cf3a	0.05219958
249	0xbd38eccd	-0.045147706
250	0x3d881c2e	0.06646
251	0x3d6aa64e	0.057287507
252	0xbc3bda63	-0.011465642
253	0xbd31f0ee	-0.04344266
254	0x3d6570e7	0.056015875
255	0x3c7e5deb	0.0155253215

net.0.bias f4 [64]
0	0xbd9a3f24	-0.07531574
1	0x3b16b1d1	0.002299417
2	0xbb862906	-0.004094246
3	0x3e14ba1f	0.14524125
4	0x3ac4c6eb	0.0015012895
5	0x3dd0506f	0.101715915
6	0xbaa352ef	-0.0012460629
7	0xbccdf28c	-0.02514007
8	0x3e0804ef	0.13283132
9	0xbd99085b	-0.07472297
10	0xba381f60	-0.0007023718
11	0x3d8be728	0.06831199
12	0xbcd728b7	-0.026264532
13	0xbda3e446	-0.08002524
14	0xbcc9be9c	-0.024627022
15	0xbcb963ae	-0.022630539
16	0xbd368f33	-0.04457016
17	0xba1f11f2	-0.0006068043
18	0x3d47700f	0.04869085
19	0x3d2462cb	0.04013328
20	0xbca7de7d	-0.020491833
21	0xbceef24f	-0.029168276
22	0x3d4455cc	0.047933385
23	0xbc90714c	-0.01763215
24	0x3ca5b227	0.020226551
25	0x3d238643	0.039922964
26	0x3dff1885	0.124558486
27	0x3de28669	0.11060793
28	0x3de7e29d	0.1132252
29	0x3d650498	0.055912584
30	0xbd9651e5	-0.07339839
31	0xbd495653	-0.04915459
32	0xb9007d33	-0.00012253672
33	0x39bb938b	0.00035777348
34	0x3d2ad4c9	0.041706834
35	0x3dc6d4c1	0.09708548
36	0xbd5111c4	-0.051042333
37	0xbd267f44	-0.040648714
38	0xba20270e	-0.0006109335
39	0x3ae4ab05	0.0017445987
40	0xb9c228f5	-0.0003703308
41	0x3d09312d	0.033494163
42	0x3cde9ae3	0.027173465
43	0x3aa23230	0.0012374576
44	0xb8a0328a	-7.638808e-05
45	0xbd7e4970	-0.062081754
46	0x3c98029d	0.018555934
47	0xbd52b3ea	-0.05144111
48	0x3b234190	0.0024910904
49	0xbd8d746e	-0.06906973
50	0x3de74001	0.11291505
51	0x3d2e248c	0.042515323
52	0x3df7ee5b	0.121060096
53	0xbd4b5390	-0.04964024
54	0x3d27a26b	0.04092638
55	0x3cdf7a2f	0.027279941
56	0xbdd59802	-0.10429384
57	0xbd9fd85d	-0.0780494
58	0xbc8857c3	-0.01664341
59	0x3dfc3a8c	0.123158544
60	0xbc8b0359	-0.01696937
61	0x3daa85b7	0.08326285
62	0x3abc4c6c	0.0014366037
63	0x3b0af5fe	0.0021203752

net.2.weight f4 [32, 64, 5, 5]
0	0xbb4c70ac	-0.0031195087
1	0xbc01ca0c	-0.007921707
2	0xbcc3c70a	-0.02389862
3	0xba2247d2	-0.00061905116
4	0xbc03048b	-0.007996689
5	0xbbe33c56	-0.006934683
6	0xbca5515b	-0.020180395
7	0xbd41685a	-0.047218658
8	0xbbf14548	-0.0073629953
9	0xbcc41b06	-0.023938667
10	0xbcd7ce35	-0.026343444
11	0x3b7990b8	0.0038080644
12	0xbce33366	-0.02773447
13	0x3b03f3d1	0.002013434
14	0x3bb50a3c	0.0055249017
15	0x3c2cf8e9	0.010557392
16	0x3c29221c	0.010323074
17	0xbcf887e3	-0.030338233
18	0xbd0c36be	-0.034231894
19	0xbce45beb	-0.027875861
20	0xbbb11db1	-0.005405151
21	0xbc4c8078	-0.012481801
22	0x3c08a3d1	0.008339838
23	0xbc959526	-0.018259596
24	0xbc9a8d78	-0.018866286
25	0xbb8fa92a	-0.0043841796
26	0x3b650550	0.0034945793
27	0x3b8c74ae	0.0042863702
28	0x3d166f81	0.036727432
29	0x3d1c76f2	0.038199373
30	0xbcdcd21f	-0.026955662
31	0xbc4cad59	-0.012492501
32	0xbcb21e44	-0.021742947
33	0xbc7042de	-0.01466438
34	0x3d0a313d	0.033738364
35	0xbd25a472	-0.04044003
36	0xbcba206c	-0.022720538
37	0x3c1e9aa9	0.009680429
38	0x3c47d8bc	0.01219767
39	0xbc9b9bca	-0.018995184
40	0xbc99c9d5	-0.018772999
41	0xbb016412	-0.0019743484
42	0xbd0145a7	-0.031560566
43	0xbca538c4	-0.02016867
44	0x3be8ae6a	0.00710087
45	0xbd4d9241	-0.050188307
46	0x3b50fe63	0.0031889908
47	0xbc9b2674	-0.018939234
48	0xbc3a7523	-0.011380467
49	0xbbfac9c0	-0.007653445
50	0xbc14e91f	-0.0090887835
51	0x3c853f31	0.016265484
52	0x3bb897fc	0.0056333523
53	0xbd0d7cdf	-0.034542914
54	0xbcab1ed7	-0.020888729
55	0x3c8b7247	0.017022265
56	0xbc5cd8bc	-0.013479408
57	0xbd286960	-0.04111612
58	0xbc7144de	-0.014725892
59	0x3c8997ff	0.01679611
60	0xbb07f5bb	-0.0020745832
61	0xbd38f8b6	-0.045159064
62	0xbd218536	-0.03943368
63	0xbc8de7f2	-0.017322514
64	0xbbb27142	-0.0054456303
65	0xbc68d935	-0.014211942
66	0xbd4dbbdf	-0.050227996
67	0xbd4fb60f	-0.050710734
68	0xbcc5b47e	-0.024133917
69	0x3d03d4d1	0.03218538
70	0xbca2a9a9	-0.01985629
71	0xbcb0706a	-0.021537978
72	0xbcbc10c8	-0.02295722
73	0xbbc969f9	-0.006146666
74	0xbc08e7f2	-0.008356081
75	0x3d32ec23	0.04368223
76	0x3c1f2dd9	0.009715521
77	0x3cd4ca2c	0.02597531
78	0x3adf238c	0.0017024144
79	0x3b4804cc	0.0030520437
80	0x3d0ee654	0.034887627
81	0x3d476b6b	0.048686426
82	0x3d0df9d8	0.034662098
83	0x3d2aa1da	0.04165826
84	0x3d573c66	0.052547835
85	0x3d5b88de	0.053597324
86	0x3d54a54d	0.051915456
87	0x3d4b54c9	0.049641404
88	0x3d407dd6	0.046995007
89	0x3d217c2e	0.039425068
90	0x3d4bb23f	0.049730536
91	0x3d01401a	0.031555273
92	0x3d3c346a	0.045948423
93	0x3d4f6e97	0.050642576
94	0x3d17e230	0.037080944
95	0x3cbd3220	0.02309519
96	0x3c71bdc1	0.0147547135
97	0x3d3935fd	0.045217503
98	0x3d0a9d0a	0.03384117
99	0x3ccf0029	0.025268631
100	0xba7a8ddd	-0.00095578824
101	0xbcd607e8	-0.026126817
102	0xbd40eb42	-0.04709936
103	0xbd465905	-0.04842474
104	0xbd1ea31a	-0.038729765
105	0xbcb3723d	-0.021905059
106	0x3c25f4ea	0.010129193
107	0xbd017d76	-0.03161379
108	0xbc94143a	-0.018076051
109	0xbd229a84	-0.03969814
110	0x3c209f89	0.009803661
111	0x3bfc7d29	0.00770535
112	0xbc8dd4c5	-0.01731337
113	0xbd07782f	-0.0330736
114	0x3bcaf858	0.0061941557
115	0x3c1eda37	0.009695581
116	0x3cdb4b3a	0.02676927
117	0xbc1e7d1f	-0.009673386
118	0xbc2c0484	-0.0104991235
119	0x3c57e317	0.013176701
120	0x3cf1f6d8	0.02953665
121	0x3c90bff7	0.017669661
122	0xbc213400	-0.009839058
123	0xbc2c3cd0	-0.010512546
124	0xbc3c36ad	-0.011487645
125	0x3c35a2b7	0.0110861575
126	0xbbde5319	-0.0067848084
127	0xba913d64	-0.0011080918
128	0x3cc84616	0.024447482
129	0x3be98ba5	0.0071272426
130	0x3c948dcb	0.018134018
131	0x3cb8494c	0.022495888
132	0x3d0ea00c	0.0348206
133	0x3c76a019	0.015052819
134	0xbb88e184	-0.004177274
135	0xbb1033cd	-0.0022003532
136	0x3ca88bf5	0.02057455
137	0x3d0bc213	0.03412063
138	0x3c12d5cf	0.008962109
139	0x3cd9aaa4	0.026570626
140	0xbc18941e	-0.009312658
141	0xbb8e5c94	-0.0043445323
142	0x3b054689	0.0020336232
143	0x3d1788c4	0.036995664
144	0x3c802d0c	0.01564648
145	0xbc11b3b6	-0.008892944
146	0x3bda6946	0.0066653816
147	0x3c9e5ac2	0.019330386
148	0xbbe6783b	-0.0070333756
149	0x3c0e3505	0.008679633
150	0xbcbca524	-0.023027964
151	0xbca7f1c7	-0.02050103
152	0x3afb2cb9	0.0019163109
153	0xbc8da324	-0.017289706
154	0xbc75b91e	-0.014997749
155	0xbd3cf219	-0.04612932
156	0xbcee7192	-0.029106889
157	0xbd40e1d3	-0.047090363
158	0xbc99ea58	-0.018788502
159	0xba90fd2f	-0.0011061783
160	0xbc7432d3	-0.014904696
161	0xbd1505fc	-0.03638266
162	0xbd8da834	-0.06916848
163	0xbd46d46e	-0.048542432
164	0xbb92c7e5	-0.0044793957
165	0xbd1964b8	-0.03744957
166	0xbd69fe5b	-0.057127338
167	0xbd43d41d	-0.04780971
168	0xbd0af900	-0.03392887
169	0x3c612b2f	0.013743206
170	0xbd13944c	-0.0360301
171	0xbd29f7c0	-0.04149604
172	0x3a84738e	0.0010105239
173	0x3bde76af	0.0067890505
174	0x3cb97b89	0.022641914
175	0xbd14dc74	-0.036343053
176	0x3c56489a	0.013078833
177	0x3c8b2308	0.016984478
178	0x3cdd6bd0	0.027028948
179	0x3c1e99cb	0.009680222
180	0x3cb68117	0.022278352
181	0x3c115984	0.00887144
182	0xbb425c02	-0.0029656892
183	0x3ce747b8	0.02823244
184	0x38b5c171	8.666784e-05
185	0x3a3c044f	0.0007172273
186	0x3d234aaf	0.039866146
187	0xb9c1618b	-0.00036884504
188	0xbba005c2	-0.004883499
189	0x3cc16899	0.023609446
190	0x3c7fe7d5	0.015619238
191	0x3c5d3c61	0.013503165
192	0x3d077fb3	0.033080768
193	0x3ccbf9c8	0.024899378
194	0x3cca0155	0.024658838
195	0x3d192a6b	0.03739397
196	0x3c8d738e	0.017267015
197	0x3c04994e	0.008093191
198	0x3c6d5485	0.014485483
199	0x3c5cbd99	0.013472938
200	0x3bbbf5c2	0.0057360837
201	0x3c5cd6e2	0.013478966
202	0x3c5e6c03	0.013575557
203	0xbb4a267e	-0.0030845697
204	0x39996619	0.00029258503
205	0x3c4c8bf9	0.012484544
206	0x3b874d5c	0.004129095
207	0x3bdc926a	0.006731321
208	0x3cbc519b	0.022988131
209	0x3b9bc86b	0.0047541163
210	0x3d130261	0.03589094
211	0x3c2b9983	0.010473612
212	0x3c1abd3d	0.009444532
213	0x3c83987f	0.016063927
214	0x3ba4ff6c	0.0050353315
215	0x3d5bb274	0.053636983
216	0x3d13acc7	0.036053445
217	0x3d0794e0	0.033100963
218	0xbc69808f	-0.014251842
219	0xbc354f5f	-0.011066287
220	0x3b0c4701	0.0021404626
221	0x3d3d5d17	0.046231356
222	0x3d1b4896	0.03791102
223	0xbaccd0ec	-0.0015626228
224	0x3b122b40	0.002230361
225	0x3cacb90a	0.021084327
226	0x3cd1b125	0.025597164
227	0x3cbfc47a	0.023409117
228	0x3bb91c28	0.0056491084
229	0x3b56ea36	0.003279341
230	0x3d560be8	0.05225745
231	0x3c2deca5	0.0106155025
232	0x3d509a34	0.05092831
233	0x3c87cd7c	0.016577475
234	0xbbc99a43	-0.0061524226
235	0x3c750eb0	0.014957115
236	0x3cfacb81	0.030614616
237	0x3cb83e6d	0.022490704
238	0x3cdab562	0.026697818
239	0xbb4df1c1	-0.0031424614
240	0x3d53de8c	0.05172591
241	0x3d6e03fe	0.058109276
242	0x3d0bb23d	0.03410553
243	0x3a3418f6	0.00068701745
244	0x3d26cb2f	0.040721115
245	0x3d514b73	0.051097345
246	0x3d08b672	0.03337712
247	0x3bfd9e68	0.0077398308
248	0xbc2dc661	-0.010606379
249	0x3d18ca3a	0.037302233
250	0x3c8da26b	0.017289361
251	0x3c8001be	0.01562583
252	0x3c0e6795	0.008691688
253	0xbccf5b41	-0.025312068
254	0x3c8abd72	0.016936038
255	0xbb792a5e	-0.0038019638

net.2.bias f4 [32]
0	0x3d4d79c0	0.050164938
1	0x3cfc1bee	0.030775037
2	0x3b50d651	0.0031866024
3	0x3b51486f	0.0031934043
4	0x3d104729	0.035224114
5	0x3cd85b0d	0.026410604
6	0xbbbaa294	-0.0056956504
7	0x3d388690	0.045050204
8	0x3caec281	0.021332981
9	0x3cb05918	0.021526858
10	0x3c841db1	0.01612744
11	0x3ce81c00	0.028333664
12	0x3d48f666	0.04906311
13	0x3d267e8c	0.04064803
14	0x3d704d75	0.05866762
15	0x3d4f329f	0.050585385
16	0x3d0a622c	0.03378503
17	0x3cd8ae88	0.02645041
18	0x3d45d8f6	0.048302613
19	0x3c10a316	0.008827945
20	0x3ca0c971	0.019627305
21	0x3c6155a5	0.013753329
22	0x3d108b31	0.035288993
23	0x3cff5e7c	0.031172983
24	0x3d19f8d9	0.037590835
25	0x3d2a1ee6	0.041533373
26	0x3b14435a	0.0022623152
27	0x3c54bbda	0.01298424
28	0x3d485504	0.048909202
29	0x3c2885df	0.010285824
30	0x3c27c0db	0.010238851
31	0x3ce47126	0.027885985

net.4.weight f4 [1, 32, 5, 5]
0	0x3b5a0391	0.0033266286
1	0xbcc90db5	-0.024542669
2	0x3b674d05	0.003529371
3	0x3cfa501c	0.030555777
4	0x3ca8fb30	0.020627588
5	0x3cd080c9	0.025452035
6	0x3c956fd4	0.0182418
7	0x3cd2eb6b	0.025747022
8	0x3d2bb7de	0.041923396
9	0x3d3da2f3	0.04629798
10	0x3ce5f438	0.028070554
11	0x3cf7d009	0.030250566
12	0x3cffa14e	0.031204846
13	0x3ba293d2	0.004961469
14	0x3beaf7e7	0.0071706655
15	0x3ce4bca7	0.027921988
16	0x3d8f7c0c	0.07006082
17	0x3cfdb635	0.030970672
18	0x3d6dcb6e	0.058055334
19	0x3d9903c9	0.07471425
20	0x3d6e4b63	0.058177363
21	0x3d496c9b	0.04917584
22	0x3d350292	0.044191904
23	0x3cecfdb7	0.028929574
24	0x3d758415	0.059940416
25	0x3d01051e	0.03149902
26	0x3c350c43	0.011050287
27	0xbce03d17	-0.02737288
28	0xbba9b98a	-0.0051795887
29	0xbd16c5d9	-0.036809776
30	0x3d17c5c7	0.03705385
31	0xbcf221e1	-0.02955717
32	0xbce47b2f	-0.02789077
33	0xb7f5bc55	-2.9293975e-05
34	0x3a2ef052	0.0006673384
35	0x3d20c407	0.039249446
36	0xbc45bb11	-0.012068526
37	0xbcd9e5be	-0.026598807
38	0xbb69bfea	-0.0035667368
39	0xbd131799	-0.035911176
40	0x3d910c86	0.07082467
41	0x3c02a802	0.0079746265
42	0xbb4274e9	-0.0029671735
43	0x3c003cf9	0.007827037
44	0xbc5667fb	-0.013086314
45	0x3d8b2f7b	0.067961656
46	0x3d5630f2	0.05229277
47	0x3d29ba8e	0.041437678
48	0x3d203a87	0.039118316
49	0x3cee1887	0.02906443
50	0xbcf86a73	-0.030324196
51	0xbd287dd5	-0.041135628
52	0x3cc55266	0.024087142
53	0x3acf8da8	0.0015835064
54	0xbcbf5609	-0.023356454
55	0xbba1982f	-0.004931472
56	0xbc89692e	-0.016773786
57	0xbd0717b5	-0.032981593
58	0xbc34180f	-0.010992064
59	0x3c5e757a	0.013577813
60	0xbc8fce72	-0.017554495
61	0xbd1bf85e	-0.03807866
62	0xbd01c183	-0.031678688
63	0x3c430f20	0.011905462
64	0xbd33d313	-0.043902468
65	0xbc586bd7	-0.013209305
66	0xbd1ba58a	-0.037999667
67	0xbd647fd9	-0.055785988
68	0xbc61618f	-0.01375617
69	0xbbe62f14	-0.007024655
70	0xbca1b31e	-0.01973873
71	0x3bcef215	0.0063154795
72	0xbd034388	-0.032046825
73	0xbd5861c4	-0.05282761
74	0xbd0bedb6	-0.034162246
75	0xbcf9e7ec	-0.030506097
76	0x3c38bb1e	0.011275081
77	0xbcc93c8b	-0.024565002
78	0xbd79ed95	-0.06101759
79	0xbd31bae2	-0.043391116
80	0xbd3d6f6c	-0.04624884
81	0xbc3455a3	-0.0110067455
82	0xbd638187	-0.05554345
83	0xbd395e56	-0.04525598
84	0xbd088de7	-0.033338454
85	0xbb543c50	-0.0032384582
86	0xbc7a635b	-0.015282477
87	0xbc02c01f	-0.007980376
88	0xbd0412a7	-0.03224435
89	0xbd21f2ca	-0.039538182
90	0xbccdb4c1	-0.025110604
91	0x3c4e4946	0.012590712
92	0xbb31b6a2	-0.0027116914
93	0xbd15e887	-0.03659871
94	0xba9cda91	-0.0011966993
95	0x3c07c12a	0.0082858
96	0x3cef4f3c	0.029212587
97	0xbbe0ba76	-0.0068581654
98	0x3c7f8dd1	0.0155977765
99	0x3c75fb16	0.015013477
100	0x3c3a413a	0.01136809
101	0x3d48e00f	0.049041804
102	0x3d775353	0.0603822
103	0x3d7339e9	0.0593814
104	0x3d90029a	0.07031746
105	0x3c90a957	0.017658873
106	0x3d709d81	0.058743957
107	0x3cfa5899	0.030559825
108	0x3d651a57	0.055933323
109	0x3cf124f8	0.029436573
110	0x3bb30ab6	0.0054639233
111	0x3b727b80	0.0036999881
112	0x3d9795f4	0.07401648
113	0x3ceb775e	0.028743442
114	0x3d863ac2	0.06554176
115	0x3c738369	0.014862874
116	0xba7436b7	-0.00093160145
117	0x3d4f4ed7	0.050612297
118	0x3c809ba2	0.015699212
119	0x3d5b7ade	0.053583972
120	0x3c55a177	0.0130389845
121	0x3ce81d4e	0.028334286
122	0x3d512bfe	0.051067345
123	0x3bc351b2	0.0059606666
124	0xbc220c30	-0.009890601
125	0xbbc78884	-0.006089272
126	0xbd4082a7	-0.0469996
127	0x3bd274fc	0.006422637
128	0xbc066658	-0.008203112
129	0x3cb6ec0c	0.022329353
130	0xbd122709	-0.035681758
131	0xbd48ce1f	-0.049024697
132	0x3946543c	0.00018914131
133	0xbd359822	-0.04433454
134	0x3c97994c	0.018505715
135	0xbb9ce938	-0.004788544
136	0xbd21f432	-0.039539523
137	0x3a91c4e6	0.0011121302
138	0xbd3bbcba	-0.04583428
139	0x3c7a7abd	0.015288052
140	0xbca36be6	-0.01994891
141	0xbd3181a9	-0.043336544
142	0xbb9bbe5c	-0.004752917
143	0xbc8b6521	-0.017015995
144	0x3cbfcf31	0.023414226
145	0xbc0b533b	-0.00850373
146	0xbc57a0f2	-0.013160931
147	0x3c3c2765	0.011484002
148	0xbc81ff8b	-0.015868923
149	0xbc9ec513	-0.019381082
150	0x3d193b30	0.03740996
151	0x3cc59b5a	0.024121929
152	0x3b9aa178	0.0047189556
153	0xbc1e0036	-0.009643605
154	0x3d17ef2f	0.037093338
155	0x3b34f9f0	0.0027614795
156	0x3d357dcc	0.044309422
157	0x3d567aae	0.05236309
158	0x3cdd77ae	0.027034607
159	0x3d251226	0.04030051
160	0x3d030665	0.03198852
161	0x3d78201b	0.060577493
162	0x3cbb8d4d	0.022894526
163	0xba60e1c6	-0.0008578565
164	0x3cd8b656	0.026454132
165	0x3ccadd8a	0.024763841
166	0x3cac5dcd	0.021040821
167	0xbc9c7ab8	-0.019101486
168	0xbc0cea84	-0.008600835
169	0xbce6848c	-0.028139375
170	0x3c370fd3	0.011173206
171	0x3d096744	0.033545747
172	0xbcb3ff35	-0.021972278
173	0x3c1f4915	0.009722014
174	0xbb0b20a7	-0.002122918
175	0xbb4a743e	-0.003089204
176	0xbd34b99a	-0.044122316
177	0x3ac569cb	0.0015061436
178	0xbbc28d82	-0.005937279
179	0x3b95b63e	0.004568844
180	0x3b8b16cf	0.0042446624
181	0xbcf58263	-0.0299694
182	0xbcbcc65a	-0.0230438
183	0xbd238d40	-0.03992963
184	0x3b7d5b6e	0.0038659233
185	0xbc2d08e9	-0.010561206
186	0xbcd218d2	-0.0256466
187	0xbd9229e0	-0.07136893
188	0xbd4fff79	-0.050780747
189	0xba7f6b92	-0.0009743507
190	0xbcedc991	-0.029026778
191	0xbd0718fe	-0.03298282
192	0xbd643c9b	-0.05572186
193	0xbc1fb99b	-0.009748842
194	0xbd5eca9a	-0.054392435
195	0x3b187818	0.002326494
196	0xbc926e01	-0.01787472
197	0xbc9e8d9a	-0.01935463
198	0xbc474598	-0.012162589
199	0xbbedfddc	-0.0072629284
200	0xbc2db907	-0.010603196
201	0x3c901914	0.017590083
202	0x3d34e34b	0.044162076
203	0x3cdf66eb	0.027270755
204	0x3ce24de3	0.02762503
205	0x3d152275	0.036409814
206	0x3d232391	0.03982884
207	0x3d4d1113	0.05006511
208	0x3d5f703b	0.05455039
209	0x3d5ea2e1	0.054354552
210	0x3d7822cd	0.060580064
211	0x3d99411c	0.07483122
212	0x3cae8d28	0.021307543
213	0x3d338c41	0.04383493
214	0x3d6e7295	0.058214743
215	0x3d83105e	0.06399606
216	0x3d92393f	0.07139825
217	0x3d91f843	0.0712743
218	0x3d35cd72	0.04438538
219	0x3d81ca6f	0.06337439
220	0x3c0495cd	0.008092356
221	0x3d226ea6	0.039656304
222	0x3d5f966e	0.05458682
223	0x3d0d7bb5	0.034541804
224	0x3c876e1c	0.016531996
225	0xbcb58023	-0.022155827
226	0xbc505b89	-0.012717136
227	0xbd4b832a	-0.049685635
228	0xbd077647	-0.033071782
229	0x3cae34b2	0.021265361
230	0xbcb69f14	-0.022292651
231	0xbd757ea1	-0.059935216
232	0xbcb124ce	-0.021623995
233	0xbc047dce	-0.008086635
234	0xbd30f080	-0.04319811
235	0xbd04c922	-0.032418378
236	0xbd5aa6c9	-0.053381715
237	0xbd504282	-0.050844677
238	0xbd3d7e20	-0.04626286
239	0x3ca164bc	0.019701354
240	0xbcf40815	-0.02978901
241	0x3c94fcd2	0.01818696
242	0xbd10bfed	-0.035339285
243	0x3a187fb9	0.0005817372
244	0x3cf8204a	0.030288834
245	0x3cd024c2	0.025408152
246	0x3c546c65	0.012965296
247	0xbd2dbada	-0.042414524
248	0x3cc0f2de	0.023553308
249	0x3cb0e36b	0.021592816
250	0xbb9592f7	-0.0045646387
251	0xbcb47304	-0.0220275
252	0xbc99788b	-0.018734237
253	0xbcf0d422	-0.029398028
254	0x3c88093e	0.01660597
255	0x3bf5a707	0.007496718

net.6.weight f4 [10, 784]
0	0xbced2a02	-0.028950695
1	0xbc6c996a	-0.014440874
2	0xbd1646e8	-0.036688715
3	0x3bf2abc2	0.007405729
4	0x3ccf38ea	0.025295693
5	0xbcf3d1c1	-0.029763104
6	0xbc14f0bf	-0.0090906015
7	0xbc56719f	-0.013088613
8	0xbd11363d	-0.035452116
9	0x3d09723e	0.033556215
10	0x3ca4dcb1	0.020124765
11	0xbc3c89d2	-0.011507468
12	0x3c7a9bd2	0.0152959395
13	0x3d12514e	0.03572207
14	0xbbdeff59	-0.006805342
15	0x3ca817b4	0.020519115
16	0x3d1465fe	0.03623008
17	0x3a014aec	0.00049321237
18	0x3c569abc	0.013098415
19	0xbc074a7b	-0.008257504
20	0x3ca1daf6	0.019757729
21	0x3b4ed66a	0.0031560906
22	0xbc9dedfd	-0.01927852
23	0x3d0123fa	0.03152845
24	0xbc69b654	-0.014264662
25	0x3cfd1153	0.03089205
26	0x3b9c9af9	0.0047792164
27	0x3cf7615d	0.030197794
28	0xbd28f8d3	-0.041252922
29	0xbd235d0c	-0.03988366
30	0xbd17df9a	-0.037078477
31	0xbd057da3	-0.03259052
32	0x3c0b1585	0.008489017
33	0x3cd56527	0.02604921
34	0xbc83bccc	-0.016081236
35	0x3c93f155	0.018059412
36	0x3c843455	0.016138235
37	0x3ce993a0	0.028512776
38	0x3cf4491d	0.02982002
39	0xbcb0f477	-0.021600945
40	0xbcf0ee42	-0.029410485
41	0x3cfbc552	0.030733738
42	0xbcacb998	-0.021084592
43	0x3c9a2ad9	0.01881926
44	0xbcee85b1	-0.029116483
45	0xbc2db169	-0.01060138
46	0x3ca660ef	0.020309893
47	0x3d274da4	0.04084553
48	0x39d1934c	0.0003997333
49	0xbccf341c	-0.025293402
50	0x3be6733b	0.0070327795
51	0xbce5c994	-0.028050222
52	0x3d122c65	0.03568687
53	0x3c8b9e0d	0.017043138
54	0x3cd29c7c	0.025709383
55	0xbc9596a4	-0.018260308
56	0x3caf055e	0.021364864
57	0xbc9d062a	-0.019167978
58	0xbce34513	-0.027742898
59	0xbc1487b6	-0.009065559
60	0xbbf8e2fd	-0.0075954185
61	0x3c194e9d	0.009357122
62	0x3c752d2f	0.014964386
63	0xbbe04699	-0.0068443534
64	0x3c50978d	0.012731445
65	0xbc8910a0	-0.01673156
66	0x3c8c47c5	0.017124066
67	0x3cf8784d	0.030330801
68	0x3c47cd65	0.012194966
69	0x3b48567c	0.0030569127
70	0xbc108529	-0.00882081
71	0x3c9a89c5	0.018864522
72	0x3cad2421	0.021135392
73	0xbba6b0b4	-0.0050869826
74	0xbab684f4	-0.0013925121
75	0xbbc02787	-0.005864087
76	0xbc8c15d4	-0.017100252
77	0x3c2418cb	0.010015677
78	0x3cc736d6	0.02431814
79	0x3ca09411	0.019601854
80	0x3d20ffeb	0.039306562
81	0x3d23fb9e	0.040034883
82	0x3b93d632	0.004511618
83	0x3bd6591b	0.006541384
84	0x3c43a4b4	0.011941124
85	0x3cd2c153	0.02572695
86	0xbd0bfb49	-0.03417519
87	0x3be9e7e1	0.007138238
88	0xbd00aafc	-0.031413063
89	0xbd02fd68	-0.03197995
90	0xbc201999	-0.009771728
91	0x3d16b79b	0.036796194
92	0xbcc43ed8	-0.023955747
93	0x3c07dc77	0.008292309
94	0x3b4ef6cf	0.0031580215
95	0xbcf6bf56	-0.030120533
96	0xbc9bb827	-0.01900871
97	0xbc189c0a	-0.009314546
98	0x3cd6fc80	0.026243448
99	0xbc4c0ec9	-0.012454697
100	0x3d14a8fc	0.03629397
101	0xbcbc238f	-0.022966174
102	0xbcead06d	-0.028663838
103	0x3b8120fa	0.0039406987
104	0x3cf73571	0.03017685
105	0x3c580735	0.013185312
106	0x3c90e24b	0.01768603
107	0x3b3b446f	0.0028574725
108	0x3c4641ad	0.012100619
109	0xbad57f2e	-0.0016288513
110	0xbc28ca29	-0.010302105
111	0xbc5a8c7f	-0.013339161
112	0xbc3ebabc	-0.011641201
113	0xbd2d91a2	-0.042375214
114	0x3c1eaccf	0.0096847555
115	0x3c2da015	0.010597249
116	0x3bf594a7	0.0074945274
117	0xbca8a868	-0.020588115
118	0xbc9f2846	-0.019428384
119	0x3c16aaed	0.009196025
120	0xbbc243f1	-0.0059285094
121	0x3c842f3d	0.016135806
122	0xbc779af4	-0.015112627
123	0x3d025354	0.03181775
124	0xbd02381d	-0.031791795
125	0x3c042d93	0.008067506
126	0xbc839fe1	-0.016067447
127	0x3c7aaade	0.015299527
128	0x3d0c4e23	0.034254204
129	0xbcd416fa	-0.025889862
130	0x3ca4bb2c	0.020108782
131	0x3a294e41	0.0006458499
132	0xbb73d2aa	-0.0037204423
133	0xbcbe5da1	-0.023238005
134	0x3c935e37	0.017989261
135	0xbc91d0b7	-0.017799718
136	0x3d2c028b	0.041994613
137	0x3ca7a837	0.020465953
138	0xbbee5e32	-0.0072744126
139	0x3d2db5e3	0.04240979
140	0x3beeab2d	0.0072835893
141	0xbb50ef46	-0.00318809
142	0x3c153f7e	0.009109376
143	0x3c4a58a4	0.012350235
144	0xbc6a62a5	-0.014305745
145	0xbc202a04	-0.009775642
146	0x3cacb878	0.021084055
147	0x3cf5f265	0.03002281
148	0x3d18871a	0.037238218
149	0xbca19b17	-0.019727273
150	0x3b8eb89a	0.0043555023
151	0x3cfc1c3c	0.030775182
152	0x3c039acf	0.008032515
153	0x3c842609	0.016131418
154	0xbc9c0d5e	-0.019049343
155	0x3cd150d7	0.025551243
156	0x3b1e1d01	0.0024126174
157	0xbc7b4808	-0.015336998
158	0x3ca35afb	0.019940844
159	0xbd05bc72	-0.03265042
160	0xb984d643	-0.0002533664
161	0xbafa88f5	-0.0019114303
162	0xbceac355	-0.028657595
163	0x3d1e34ec	0.03862469
164	0x3a87129f	0.0010305232
165	0x3ca9dd84	0.02073551
166	0x3d2f98c7	0.04287031
167	0xba44962b	-0.00074991834
168	0xbcd1a10f	-0.025589494
169	0x3c0e9390	0.008702174
170	0xbcbdd13c	-0.02317106
171	0x3c9a5020	0.018837035
172	0x3b772c38	0.0037715565
173	0x3d081da9	0.03323141
174	0xbc4bbda2	-0.012435349
175	0xbc89da65	-0.016827771
176	0x3d3403e5	0.043949027
177	0x3abf836d	0.0014611311
178	0xbc5c1308	-0.013432272
179	0x3c7d7db5	0.015471865
180	0xbb0bb867	-0.002131963
181	0x3c8e0c89	0.017339962
182	0x3b16490a	0.0022931718
183	0x3c10e216	0.008842966
184	0xbcfd7c88	-0.03094317
185	0xbc5950d5	-0.013263901
186	0x3ba49a0d	0.005023247
187	0xbc889268	-0.016671374
188	0x3bccf829	0.006255169
189	0x3beef077	0.0072918492
190	0x3ce69a84	0.02814985
191	0xbc9942d7	-0.01870863
192	0xbc913be5	-0.017728755
193	0x3ccb9bc8	0.024854556
194	0x3cf0107a	0.029304732
195	0x3cf0b7d4	0.029384531
196	0x3c8e2dff	0.017355917
197	0x3a60eb9c	0.00085800304
198	0x3c0d195a	0.008612001
199	0x3d2327ee	0.039833
200	0xbc8d7f24	-0.01727254
201	0xbc62b012	-0.013835924
202	0xbc820480	-0.015871286
203	0xba56b6f1	-0.00081907125
204	0x3cdf14e3	0.02723164
205	0xbbc94a95	-0.006142924
206	0x3d0b2ba9	0.033977184
207	0x3b57e7c5	0.0032944542
208	0x3cdf8b4e	0.027288105
209	0xbc0fcb23	-0.008776459
210	0x3ca9eb4a	0.020742077
211	0xbd0b7a18	-0.034051985
212	0xbccf2554	-0.025286354
213	0xbd166451	-0.036716763
214	0x3c8ff025	0.017570565
215	0x3c5a5906	0.013326889
216	0x3baac933	0.005211973
217	0xbc3faa60	-0.011698335
218	0x3cbbb1d5	0.022911945
219	0xbcbe33f1	-0.023218127
220	0x3cf72e03	0.030173307
221	0xbcd26e62	-0.0256874
222	0x3c846885	0.01616312
223	0x3cc366a4	0.023852654
224	0x3d1464f6	0.036229096
225	0x3c729c89	0.014807829
226	0x39cac7f0	0.00038677407
227	0xbcc75bc1	-0.024335744
228	0x3d04936b	0.03236715
229	0x3d0e9cf6	0.03481766
230	0xbc72f79d	-0.014829543
231	0x3cb442cd	0.02200451
232	0x3ca78502	0.020449165
233	0xbbb68f2e	-0.0055712676
234	0x3b89a8d9	0.0042010364
235	0x3d059632	0.03261394
236	0x3c977641	0.018489005
237	0xbc22b4fa	-0.0099308435
238	0xbcce94f4	-0.02521751
239	0x3cbc741d	0.023004586
240	0xbd32644b	-0.043552678
241	0xbcd35477	-0.025797112
242	0x3c896edd	0.016776497
243	0xbcd78f3a	-0.026313413
244	0x3cb6164d	0.02222743
245	0xbcebd701	-0.028789045
246	0x3cb63817	0.022243543
247	0x3ccc7ad0	0.024960905
248	0xbcdfad53	-0.027304327
249	0xbb5b9b05	-0.0033509147
250	0x3b8b6459	0.0042539057
251	0x3c927f99	0.017883109
252	0x3cae97dc	0.021312647
253	0xbcf12f27	-0.02944143
254	0x3cf1d448	0.029520169
255	0xbc5a0ee8	-0.013309218

net.6.bias f4 [10]
0	0x3bc41730	0.0059842095
1	0x3c468394	0.012116332
2	0xbc18be12	-0.00932266
3	0xbd3d1435	-0.04616185
4	0xba8de922	-0.0010826925
5	0xbcb2f0c8	-0.02184333
6	0xbd59b916	-0.053155027
7	0xbcfd620e	-0.030930545
8	0xbd3fb546	-0.046803735
9	0xbad09d38	-0.0015915995
